fine_tuned_tiny_gpt2/checkpoint-8081/model.safetensors (safetensors, 413296 bytes, 28 tensors)

transformer.h.0.attn.c_attn.bias f4 [6]
00000000: 457e 8fbd a91a 8abd 517d 9636 2d87 8236
00000010: 9a11 84bd db24 513d
-0.07006506 -0.06743366 4.484937e-06 3.8900384e-06 -0.0644867 0.05106054

transformer.h.0.attn.c_attn.weight f4 [2, 6]
00000000: f290 b6bd 408a b4bd ecbe a5bd 3e63 8ebd
00000010: f917 79bd ebef e13b fb5d 7c3d d594 9d3d
00000020: 4b12 6f3d 2b19 793d ba97 9f3d 49ee 40bd
-0.08914365 -0.088154316 -0.08093056 -0.06952523 -0.060813878 0.0068950555 0.061613064 0.07694403
0.058367055 0.060815018 0.077926114 -0.047102246

transformer.h.0.attn.c_proj.bias f4 [2]
00000000: 5ed3 28bd cd2d 2b3d
-0.0412172 0.041791726

transformer.h.0.attn.c_proj.weight f4 [2, 2]
00000000: 56da 2d3d a692 3dbd 4096 ebbd 4b33 0e3d
0.04244455 -0.046282433 -0.11503267 0.034716886

transformer.h.0.ln_1.bias f4 [2]
00000000: 9b77 103d 6a36 7dbd
0.035270315 -0.06181947

transformer.h.0.ln_1.weight f4 [2]
00000000: 6a70 823f ba65 843f
1.0190556 1.0343544

transformer.h.0.ln_2.bias f4 [2]
00000000: ebfc 873d eaee 7ebd
0.06640037 -0.062239565

transformer.h.0.ln_2.weight f4 [2]
00000000: 7e8c 873f 1412 873f
1.058975 1.0552392

transformer.h.0.mlp.c_fc.bias f4 [8]
00000000: 40d1 463d 6548 1fbd 097f 563d 4fe0 67bd
00000010: bcbe 403d cb6c 493d 1fda e83c 507c 633d
0.0485394 -0.0388874 0.052367244 -0.0566104 0.0470569 0.04917602 0.02842432 0.055538476

transformer.h.0.mlp.c_fc.weight f4 [2, 8]
00000000: 3a4c 643d cbd7 42bd 1221 313d 4551 0cbd
00000010: f6ef 4f3d a7cd 263d f7f3 2f3d 6d65 803d
00000020: f398 29bd 6db7 543d c768 15bd 5b02 993d
00000030: 1a22 7fbd 0dbc 87bd a7c2 5ebd ae13 5abd
0.055736758 -0.047569077 0.04324443 -0.034257192 0.050765954 0.04072347 0.042957272 0.062693454
-0.04140563 0.05193274 -0.036476877 0.074711524 -0.06228838 -0.06627665 -0.054384854 -0.053241424

transformer.h.0.mlp.c_proj.bias f4 [2]
00000000: c9b9 21bd f83f 203d
-0.03948382 0.039123505

transformer.h.0.mlp.c_proj.weight f4 [8, 2]
00000000: 4827 bbbd d7e8 a03d 2487 233d 6e0e 0dbd
00000010: 37b6 36bd 6e44 8a3d 66e9 723d 569b 4bbd
00000020: 8ff2 50bd ccb8 e93d 11f1 60bd c582 bf3d
00000030: df89 a2bc 7ca7 373d 6cb8 1ebd 34f1 883d
-0.09138352 0.07856911 0.039923802 -0.03443759 -0.044607367 0.06751333 0.059304617 -0.049708687
-0.051012572 0.114122 -0.0549174 0.09351114 -0.019841133 0.04483746 -0.038750097 0.06686631

transformer.h.1.attn.c_attn.bias f4 [6]
00000000: a541 993d b55e 923d 7bab 1bb5 d05a 10b6
00000010: e873 803d 3304 56bd
0.07483224 0.0714697 -5.7991537e-07 -2.1510532e-06 0.06272107 -0.0522501

transformer.h.1.attn.c_attn.weight f4 [2, 6]
00000000: bd33 a83d 6026 9b3d e7d2 9cbd e600 91bd
00000010: 6374 9dbd 4fc4 6d3d d404 9ebd 6496 babd
00000020: 99d6 8e3d cf43 b33d 92f3 8d3d 27c3 78bd
0.08212993 0.07575679 -0.07657414 -0.070802495 -0.07688215 0.058048543 -0.07715765 -0.09110716
0.06974525 0.08753168 0.06931223 -0.060732987

transformer.h.1.attn.c_proj.bias f4 [2]
00000000: 30c6 25bd c702 223d
-0.04047221 0.03955343

transformer.h.1.attn.c_proj.weight f4 [2, 2]
00000000: a173 57bd d308 8f3d cc93 a93d 96bc acbd
-0.052600507 0.06984105 0.08280143 -0.084344074

transformer.h.1.ln_1.bias f4 [2]
00000000: 113d 96bd 4930 933d
-0.07335866 0.07186944

transformer.h.1.ln_1.weight f4 [2]
00000000: c136 893f 5515 893f
1.0719835 1.0709635

transformer.h.1.ln_2.bias f4 [2]
00000000: 12b2 503d c965 84bd
0.05095107 -0.064647265

transformer.h.1.ln_2.weight f4 [2]
00000000: 7c27 853f 22b2 863f
1.0402675 1.0523112

transformer.h.1.mlp.c_fc.bias f4 [8]
00000000: e7f2 14bd 2ca4 67bd 26ea 743d 973f 143d
00000010: 3172 50bd f8d4 65bd dea6 64bd ec78 683d
-0.036364462 -0.05655305 0.059793614 0.036193457 -0.05089015 -0.056111306 -0.0558232 0.056755945

transformer.h.1.mlp.c_fc.weight f4 [2, 8]
00000000: b12b 2bbc 62c5 abbc c2ad 843d 8cef 3e3d
00000010: bb4d 85bd 1356 3fbd a1f8 22bd 124f eb3c
00000020: f20a 0fbb 2927 a13d 25f2 58bd a201 5fbd
00000030: 08d3 753d 1a35 253d 4ed0 073d ea08 c9bd
-0.010447429 -0.020968143 0.06478454 0.04661517 -0.065089665 -0.046712946 -0.039787892 0.028724227
-0.0021826592 0.07868797 -0.052965302 -0.054444917 0.06001571 0.040333845 0.03315764 -0.09816153

transformer.h.1.mlp.c_proj.bias f4 [2]
00000000: 2393 26bd 95de 263d
-0.040667664 0.040739615

transformer.h.1.mlp.c_proj.weight f4 [8, 2]
00000000: e8b2 813c 5073 13bd c510 523d b08c 83bd
00000010: 2ee5 86bd ac81 1a3d 4c7d 50bd 18a6 bd3c
00000020: 48e6 a53d 724e 06bd 01d2 863d f961 85bd
00000030: e013 723d 4936 52bd 84e8 7fbd 63d9 483d
0.01583238 -0.035998642 0.051285524 -0.064233184 -0.06586681 0.03772132 -0.050900742 0.023150489
0.08100563 -0.032789655 0.06583024 -0.065128274 0.059100986 -0.0513213 -0.062477604 0.04903544

transformer.ln_f.bias f4 [2]
00000000: 362f 89be 6ed6 883e
-0.26793832 0.26726097

transformer.ln_f.weight f4 [2]
00000000: 0640 a23f 040a a23f
1.2675788 1.2659307

transformer.wpe.weight f4 [1024, 2]
00000000: 2631 3d3c 134a 9ebb 6bb3 113d 663a 55bc
00000010: 2b84 54bc 57ff 6c3c bd52 12bd 8eb8 bb3c
00000020: 7452 75bc 05af a83c 3371 60bc 6af0 c03a
00000030: 4278 1cbd ec0c 86bb f92e 183b 1daf 7a3c
00000040: 4a77 8f3b 66ef 44bc bbf0 093c f745 ed39
00000050: fa72 0b3d 4204 bc3a cac3 323c 3fad 55bc
00000060: ac3b 353c aa6c 5039 7521 56bc 30e8 cbbc
00000070: c949 21bd e3e3 913b d73c 833c 93d0 d4ba
00000080: c3d8 c33c b4e0 ca3c e7d4 1bba 18d5 a03b
00000090: ce9b 19bc 1904 453c 390a 003d 6508 ba3b
000000a0: 3c4a de3c 6413 553c f150 23bc 6aba e93d
000000b0: 8da4 47bc 14a5 043d c298 b9bb 1fba b6bc
000000c0: fcff 9d3c e212 d5bc aa52 cebc 864c 0f3b
000000d0: 7b8e 8a3b 9acd 1bbd 816b 933b f94b 9dbc
000000e0: 7d48 18bd 1968 b63d 3e30 923b d76e 8b3c
000000f0: 74ba 653c 004e 0a3c f54e 24bb f195 13ba
00000100: 0d30 23bb bfc4 8dbb 0df4 61bc 7f43 0fbc
00000110: a7ac 343c 1e96 863c 52c5 2fbc 6cb8 56bc
00000120: e569 80bc 6616 753d 1139 59bb bd52 213d
00000130: 06f6 543b 4b49 b73b 30c9 433c e07a a23c
00000140: bca7 80bb 2644 353c 7832 e3bd 16ae c83c
00000150: 4ea8 403c d58b bfbb 4fd1 afbc 681a 273b
00000160: 3bd4 cfbb 95b6 25bc 8406 7fbc 56d7 eabc
00000170: 3bb3 043b 7b54 5e3b 2a8d 1bbd a64c cd3d
00000180: 2a92 723c ffaa d3bb 4cb0 e4bb 8228 023c
00000190: b18d 13bc 7880 b0bb ca67 61bb acd0 873c
000001a0: 5970 9dba ee15 f13b 970f 5f3c daa6 f9bb
000001b0: 18a5 9a3c 303a 9bbb 507e 2a3c c331 b53c
000001c0: eaba cf3c 1e90 293b 69b9 82ba 688d b43c
000001d0: ba1f 69bc 0680 76bb 064d 36bc d6a9 26bc
000001e0: fc66 413d 2a08 8a3c b0d8 313c d073 0cbc
000001f0: 2a0a 12bc e524 153c a446 963b 56f6 a73b
00000200: b475 3d3c 4fc8 9fbc eee7 983c 0f8e cc3c
00000210: 3e07 1cbc aa8b 2bbc 20fa a9bc fb20 0abd
00000220: 5616 8a3c 1f43 13bd f6fa 923b e607 d8bb
00000230: c047 60bc 169f c63c 67fb 363c 8eb3 84bc
00000240: 22fe 90bc 3fcf 0e3c 3fff e1bc b9bb bfbc
00000250: 732e 0cbc 1c77 563c fde8 48bc b7a3 ffbc
00000260: b771 733c d7f9 13bc c063 543c e97a a0bc
00000270: 2886 4fbd 5baf f23c 1bfc 913c 48a1 67bc
00000280: 4204 59bc 1eb8 493c 2f1f 0c3d e76d e3bc
00000290: db93 51ba d36d f63c a35a e23a 63c4 49b8
000002a0: db59 4a3c ba0c 8cbc 29ca 783c d489 263b
000002b0: 08ae 1cb7 9cbd 2d3d 0988 0e3c 0e0c d13c
000002c0: ad96 93bb e5f1 29bb f082 40bc b9f2 9c3b
000002d0: c357 97bb cbde 3bbc ca27 293c 4b39 053c
000002e0: 36f3 a53c 7e23 3b3d defa 13bc 2218 30bb
000002f0: f94c ecbc c75c 7e3c d494 a43c 7b50 043c
00000300: 7d45 543c 1b2d 9f3b 5b0e 0bbc 39e8 8fbc
00000310: fda3 e93c 7b1e b43c 7c9c 80bc 9026 98bc
00000320: 89db d03c 4184 b43c 69bd 5dbc 4148 45bb
00000330: 6c64 f03c 9884 bf3c 01c0 003d f8fd 51bd
00000340: d446 5a3c 59c5 d0b9 0002 053c 5416 8dbb
00000350: a5f5 d63a 0ee0 16bc 2b3d 53bd 75e8 65bc
00000360: 2560 d13b f6c2 83bc bd9c cc3c 660e e13c
00000370: bb66 17bd e6ed 4ebd 468e 22bd ba7e 9c3a
00000380: 66b4 c83c e04d c13b 3379 3ebc 4dff 153c
00000390: 879c 13bd d405 5f3a b3b6 adbb 97fe 063d
000003a0: dbd4 90bc ec64 62bc ea60 7d3a 86ef c7bc
000003b0: 8cbc f4ba 4f8e 7e3b 876f 963b 4b75 38bc
000003c0: 324a 83bb fd3c 70bb db04 313a 0282 07bc
000003d0: d03b 92ba 9182 953b af7f 64bc 66c0 b6bc
000003e0: 5560 743c 3685 0d3d ff69 9d3b 5b3a c8bc
000003f0: c4d1 88bc 19d4 113c 35b8 a13b f4a8 6dba
0.011547362 -0.0048306077 0.035571497 -0.013014412 -0.012970964 0.014465175 -0.035723437 0.022915151
-0.014973272 0.020591268 -0.013698864 0.0014720086 -0.038200624 -0.004090896 0.0023221357 0.015300539
0.004378234 -0.012019968 0.008419211 0.0004525629 0.034045197 0.0014344531 0.010910938 -0.013041793
0.01106159 0.00019876906 -0.0130695 -0.024890989 -0.039377008 0.004452215 0.016020222 -0.0016236476
0.023907071 0.02476535 -0.00059445057 0.0049082153 -0.009375526 0.012024903 0.03125975 0.0056772702
0.027135007 0.013005111 -0.009968028 0.11412509 -0.012185228 0.032383993 -0.005663962 -0.022305546
0.019287102 -0.02600998 -0.025185902 0.002186568 0.004228411 -0.038037874 0.0044988994 -0.019201266
-0.037178505 0.08906574 0.0044613173 0.017020626 0.014021505 0.008441448 -0.0025071476 -0.0005629948
-0.0024900467 -0.0043264325 -0.013791096 -0.00874412 0.011027492 0.016429003 -0.010728197 -0.013105493
-0.015675494 0.059835814 -0.0033145586 0.039385546 0.0032495274 0.005593454 0.011949822 0.019833982
-0.0039262455 0.011063611 -0.110936105 0.024497073 0.011758877 -0.0058455267 -0.02146211 0.0025497917
-0.0063424385 -0.010114332 -0.015565518 -0.028667133 0.0020248431 0.0033924866 -0.03797642 0.10024385
0.014805356 -0.0064595933 -0.006979024 0.007944228 -0.00900595 -0.0053864084 -0.0034394138 0.016578995
-0.0012011632 0.0073573506 0.013614557 -0.007618767 0.018877551 -0.004737161 0.010406092 0.022118455
0.025357682 0.0025873254 -0.000997347 0.022040084 -0.014228756 -0.003761293 -0.011126762 -0.010172328
0.047217354 0.016849596 0.010854885 -0.008572534 -0.008913556 0.009103035 0.0045860577 0.005125801
0.011563707 -0.019504694 0.01866528 0.024970083 -0.009523211 -0.01047031 -0.020749152 -0.03372286
0.016856354 -0.035952684 0.0044854833 -0.0065927384 -0.0136889815 0.02424578 0.011168337 -0.0161989
-0.017699305 0.0087164035 -0.027587531 -0.023404943 -0.008555996 0.013089921 -0.01226258 -0.031205995
0.014858655 -0.009031734 0.012963235 -0.019589858 -0.05066505 0.029624632 0.017820409 -0.014137574
-0.013245644 0.012311963 0.034209426 -0.027762366 -0.00079947495 0.030081665 0.0017269443 -4.8105034e-05
0.012350525 -0.017095912 0.0151849175 0.0025411742 -9.338844e-06 0.042417154 0.0086994255 0.025518443
-0.004504046 -0.0025931534 -0.011749968 0.004789677 -0.0046186163 -0.011466692 0.010324428 0.0081313355
0.020257574 0.045688145 -0.009031979 -0.0026869853 -0.028845297 0.0155250495 0.020090498 0.008075829
0.01295602 0.004857672 -0.008487309 -0.017566787 0.028520579 0.02198719 -0.015699618 -0.018573076
0.025495308 0.02203572 -0.013533928 -0.003010288 0.02934476 0.023378655 0.03143311 -0.051267594
0.013322551 -0.00039819887 0.008118153 -0.0043056402 0.0016400112 -0.009208692 -0.051572006 -0.014032473
0.006389635 -0.016084176 0.024977082 0.027472686 -0.036963206 -0.050519846 -0.039686464 0.0011939623
0.024500083 0.005899176 -0.011625576 0.009155107 -0.036037948 0.00085076434 -0.0053013205 0.03295764
-0.017679622 -0.013818007 0.00096656254 -0.024406206 -0.0018671914 0.0038842147 0.004590932 -0.011258434
-0.0040066475 -0.0036657446 0.00067527377 -0.008270742 -0.0011156742 0.004562684 -0.013946458 -0.02230854
0.0149155455 0.034550868 0.0048038955 -0.024441889 -0.016701587 0.008900666 0.0049352893 -0.00090660085

transformer.wte.weight f4 [50257, 2]
00000000: e5c4 633e 9614 6abe b71f 723e 42b8 59be
00000010: 9de6 383e d923 68be 2e7c 6d3e a5c4 57be
00000020: 9c9a 6a3e 7d3d 5bbe 8d63 693e 2c95 4fbe
00000030: d10d 67bc 5770 0f3d 501c 723e c075 7bbe
00000040: 5d51 813e 11e2 6ebe 1b8c 753e c099 57be
00000050: c8b8 243e a114 53be 2812 4abe a04d 743e
00000060: bb2e 48bb dbc8 13bc 558a 80be 8d8c 623e
00000070: 7cf3 523e 0944 4fbe 269a 53be d8ad 2c3e
00000080: a51a d739 a4b9 6bbc a0f2 04be dae9 0e3e
00000090: 35ab 863e 3cd8 6fbe dd79 3dbe 6682 163e
000000a0: 071e 44be df91 123e c99a 40be ba20 1b3e
000000b0: cd59 503e ac88 76be f6da 21be 9f51 273e
000000c0: 9f83 393e 42a0 40be 6490 46be 5198 5e3e
000000d0: 4197 563e f123 57be fdf8 783e e18c 6fbe
000000e0: 530e 643e fd70 7dbe 592e 8c3e 469c 72be
000000f0: 57be 433e a8d8 86be 39e7 563e ea20 3bbe
00000100: 7eab d23d bd03 c7bd dd74 5c3d cb89 11bd
00000110: 15e9 913d f7f2 48bd 13be c83d de5c 63bd
00000120: 097a 593d 3ded 59bd 51cf b6bb 470b 55bc
00000130: 22b7 343e c7f6 48be 3670 1d3d 0c59 e63b
00000140: 5b4d 0d3e cf4c 04be ea66 0c3e d5d7 f5bd
00000150: 4cea 96bd 7e1d a93d fb89 c43d 7d89 a2bd
00000160: d5bb 69bd 5293 b93d 0ed5 273d 833e 59bd
00000170: c5ee f53d 737a 06be 3a49 e73b c9e3 2dbd
00000180: 08d7 213e 169d 51be d1da 2d3d cc01 3abd
00000190: 1064 ae3d 9c87 aebd c6c9 9a3d 4604 acbd
000001a0: 2994 c13d 6d52 fcbd 14a1 0d3e c0d0 0fbe
000001b0: 626c 2e3e ab25 79be 87ec 6a3e b166 52be
000001c0: 8c0b c13d 8e1e bfbd c7a1 763e ca58 69be
000001d0: 95a3 613e 2f09 58be 35f4 6e3e ebfa 4cbe
000001e0: 1cb7 573e 68b6 51be 8d75 483e 707c 38be
000001f0: 5e1c 523e cbe3 6ebe 2427 643e eedc 5bbe
00000200: 4d70 d5bd 2877 7f3d 3182 6dbd 12d2 293d
00000210: 834d e3bc 20b1 d13c 05f1 bb3b 9948 cc3c
00000220: 0f53 a3bc 8cf2 503c 1ca0 96bc 69a6 323d
00000230: 2030 73bb a411 aa3c ba42 04bc 592e ffbc
00000240: a82b c2bc a10a 863d 7d75 e3bc 0b4a c83b
00000250: 559f 9fbc 3f86 423d 910d febc c073 b33c
00000260: 3e53 ed3b e680 183c b516 52bc 8b63 1f3d
00000270: e8d0 28bd 68f0 7d3d 3198 203d 4051 ed3b
00000280: ebd6 803c 6921 9d3a d68b 7d3c f58a 0d3d
00000290: d609 9dbc cf61 e63b b7e5 d2bb 97f9 e2bb
000002a0: 9176 bfbc 57f4 953d bd6c a3bc fccd 4c3d
000002b0: 35c2 fbbc f0db 093b 9b4a e63c 8cad a3bb
000002c0: 7fca d73b 182e 553a 3d68 2bbd f41a 4d3d
000002d0: 4f68 733e 1a5e 72be c973 4d3e 3a81 55be
000002e0: 1d2c 5b3e 65fa 6bbe f995 473e a467 66be
000002f0: eaed 713e ce9d 69be 872f 5e3e 3ec2 54be
00000300: 22eb 3d3e 4bf3 4bbe 27e4 4a3e fd67 5ebe
00000310: c27d 593e 2483 46be 2210 513e 1946 76be
00000320: 8ec5 4f3e 79d7 49be 38f3 5d3e 88c0 5dbe
00000330: ec15 503e ef8b 68be afbf 5c3e 8e0f 77be
00000340: 5105 723e ae7f 68be ce6a 5e3e 08e8 6dbe
00000350: 7d0b 7a3e 8b0a 60be 6384 123e aedf debd
00000360: 51dc bc3c e00d 94bd 07a7 4d3e d30f 63be
00000370: d59f 393d 210d 423c d244 5f3e cf12 40be
00000380: 722e 3f3e 6ee6 54be 65f2 3b3e f419 64be
00000390: 732d 513e 48f0 68be 21aa 483e 04cd 38be
000003a0: 04c4 853e bef0 6bbe 6e5d 113e f30f f9bd
000003b0: 9ab6 8e3d 2a8e 83bd 4a05 cd3d 8e17 5fbd
000003c0: 37a6 1b3e 1050 12be 5a32 95bb cf53 13bc
000003d0: 9350 1abb 515e be3b 36be 5e3e f040 2dbe
000003e0: eba9 423e d8a9 37be 7761 5c3e 11a5 65be
000003f0: 3000 6a3e 4030 74be d400 aa3c d5d3 92bc
0.22243078 -0.22859415 0.23644911 -0.21261695 0.18056722 -0.22669925 0.23191902 -0.21071108
0.22910541 -0.21410175 0.22791882 -0.20271748 -0.014102415 0.035019245 0.23643613 -0.24556637
0.25257388 -0.23328425 0.23979227 -0.21054745 0.16086113 -0.20613338 -0.19733489 0.23857737
-0.0030545432 -0.009020056 -0.2510554 0.22123928 0.20600694 -0.20240797 -0.20664272 0.16863191
0.00041027847 -0.014387522 -0.12983179 0.13956395 0.26302496 -0.2342233 -0.18503518 0.1469818
-0.1915208 0.14313458 -0.18809046 0.15149203 0.20346756 -0.24075574 -0.15806183 0.1633973
0.18116616 -0.18811134 -0.19391018 0.21737792 0.20956136 -0.21009804 0.24313731 -0.23393585
0.2227109 -0.24750133 0.2737911 -0.23692426 0.19115578 -0.2633717 0.20986642 -0.18274274
0.10286616 -0.0971751 0.053822387 -0.0355318 0.07124535 -0.049059834 0.09801879 -0.055508487
0.053094897 -0.053204764 -0.0055789133 -0.013003177 0.17647985 -0.19625388 0.03843709 0.007029658
0.1379904 -0.12919925 0.13711134 -0.12004057 -0.07368907 0.08257578 0.0959663 -0.0793638
-0.057063896 0.09061302 0.04097467 -0.05303813 0.12008432 -0.13132648 0.00705829 -0.04245356
0.15804684 -0.2047008 0.042445008 -0.04541187 0.08515179 -0.08521959 0.075580165 -0.083992526
0.094520874 -0.12320409 0.13830978 -0.14044476 0.17033532 -0.24330775 0.2294179 -0.20546986
0.094260305 -0.09332 0.2408515 -0.22787777 0.22035058 -0.21097253 0.23335345 -0.20017593
0.21065944 -0.20479739 0.19576092 -0.18016219 0.20518634 -0.23329084 0.22280556 -0.21470997
-0.1042181 0.062369496 -0.05798549 0.041460104 -0.027746921 0.025597155 0.005735519 0.024936961
-0.019937066 0.01275314 -0.018386893 0.043615732 -0.0037107542 0.020760365 -0.0080725495 -0.03115003
-0.023702458 0.06544996 -0.027765984 0.0061123422 -0.019485155 0.04749131 -0.031012328 0.02190578
0.0072425893 0.0093080755 -0.012822797 0.03891329 -0.041214854 0.061996847 0.03920764 0.007242352
0.01572748 0.0011988106 0.015475234 0.034556348 -0.01916973 0.0070307027 -0.0064360755 -0.006926726
-0.023371967 0.07321995 -0.019949311 0.05000113 -0.030732254 0.0021035634 0.028111747 -0.0049950536
0.0065854187 0.00081321737 -0.041847456 0.050074533 0.2377026 -0.2366871 0.200637 -0.20850077
0.21403547 -0.23044737 0.19490804 -0.22500473 0.23625913 -0.22814104 0.21697818 -0.20777223
0.18546727 -0.19917028 0.19813596 -0.21719356 0.21239379 -0.19385964 0.2041631 -0.24050178
0.20290205 -0.19711103 0.21674812 -0.21655476 0.20320863 -0.2270963 0.21557496 -0.24127027
0.2363484 -0.22704956 0.2172043 -0.23233044 0.24418445 -0.21879022 0.14308314 -0.10882507
0.023054274 -0.07229209 0.20083247 -0.22174005 0.045318443 0.0118439505 0.21803597 -0.18757175
0.18670061 -0.20791027 0.18354185 -0.22275525 0.20427494 -0.2274791 0.19596149 -0.18046957
0.2612611 -0.23041055 0.14195797 -0.12161245 0.06968422 -0.064236 0.100107744 -0.054465823
0.15200125 -0.14288354 -0.0045531215 -0.0089921495 -0.002354656 0.0058095832 0.21752247 -0.16919303
0.19010131 -0.17935884 0.21521555 -0.22426249 0.22851634 -0.23846531 0.020752348 -0.017923275
